…
2023-05-26 23:43:48,300   INFO  Database filter by min points Pedestrian: 2207 => 2168
2023-05-26 23:43:48,300   INFO  Database filter by min points Cyclist: 734 => 705
2023-05-26 23:43:48,395   INFO  Database filter by difficulty Car: 13532 => 10759
2023-05-26 23:43:48,399   INFO  Database filter by difficulty Pedestrian: 2168 => 2075
2023-05-26 23:43:48,400   INFO  Database filter by difficulty Cyclist: 705 => 581
2023-05-26 23:43:48,408   INFO  Loading KITTI dataset
2023-05-26 23:43:49,100   INFO  Total samples for KITTI dataset: 3712
2023-05-26 23:43:58,098   INFO  PointPillar(
  (vfe): PillarVFE(
    (pfn_layers): ModuleList(
      (0): PFNLayer(
        (linear): Linear(in_features=10, out_features=64, bias=False)
        (norm): BatchNorm1d(64, eps=0.001, momentum=0.01, affine=True, track_running_stats=True)
        (do): Dropout(p=0.15, inplace=False)
      )
    )
  )
  (backbone_3d): None
  (map_to_bev_module): PointPillarScatter()
  (pfe): None
  (backbone_2d): BaseBEVBackbone(
    (blocks): ModuleList(
      (0): Sequential(
        (0): ZeroPad2d((1, 1, 1, 1))
        (1): Conv2d(64, 64, kernel_size=(3, 3), stride=(2, 2), bias=False)
        (2): BatchNorm2d(64, eps=0.001, momentum=0.01, affine=True, track_running_stats=True)
        (3): Dropout2d(p=0.15, inplace=False)
        (4): ReLU()
        (5): Conv2d(64, 64, kernel_size=(3, 3), stride=(1, 1), padding=(1, 1), bias=False)
        (6): BatchNorm2d(64, eps=0.001, momentum=0.01, affine=True, track_running_stats=True)
        (7): Dropout2d(p=0.15, inplace=False)
        (8): ReLU()
        (9): Conv2d(64, 64, kernel_size=(3, 3), stride=(1, 1), padding=(1, 1), bias=False)
        (10): BatchNorm2d(64, eps=0.001, momentum=0.01, affine=True, track_running_stats=True)
        (11): Dropout2d(p=0.15, inplace=False)
        (12): ReLU()
        (13): Conv2d(64, 64, kernel_size=(3, 3), stride=(1, 1), padding=(1, 1), bias=False)
        (14): BatchNorm2d(64, eps=0.001, momentum=0.01, affine=True, track_running_stats=True)
        (15): Dropout2d(p=0.15, inplace=False)
        (16): ReLU()
      )
      (1): Sequential(
        (0): ZeroPad2d((1, 1, 1, 1))
        (1): Conv2d(64, 128, kernel_size=(3, 3), stride=(2, 2), bias=False)
        (2): BatchNorm2d(128, eps=0.001, momentum=0.01, affine=True, track_running_stats=True)
        (3): Dropout2d(p=0.15, inplace=False)
        (4): ReLU()
        (5): Conv2d(128, 128, kernel_size=(3, 3), stride=(1, 1), padding=(1, 1), bias=False)
        (6): BatchNorm2d(128, eps=0.001, momentum=0.01, affine=True, track_running_stats=True)
        (7): Dropout2d(p=0.15, inplace=False)
        (8): ReLU()
        (9): Conv2d(128, 128, kernel_size=(3, 3), stride=(1, 1), padding=(1, 1), bias=False)
        (10): BatchNorm2d(128, eps=0.001, momentum=0.01, affine=True, track_running_stats=True)
        (11): Dropout2d(p=0.15, inplace=False)
        (12): ReLU()
        (13): Conv2d(128, 128, kernel_size=(3, 3), stride=(1, 1), padding=(1, 1), bias=False)
        (14): BatchNorm2d(128, eps=0.001, momentum=0.01, affine=True, track_running_stats=True)
        (15): Dropout2d(p=0.15, inplace=False)
        (16): ReLU()
        (17): Conv2d(128, 128, kernel_size=(3, 3), stride=(1, 1), padding=(1, 1), bias=False)
        (18): BatchNorm2d(128, eps=0.001, momentum=0.01, affine=True, track_running_stats=True)
        (19): Dropout2d(p=0.15, inplace=False)
        (20): ReLU()
        (21): Conv2d(128, 128, kernel_size=(3, 3), stride=(1, 1), padding=(1, 1), bias=False)
        (22): BatchNorm2d(128, eps=0.001, momentum=0.01, affine=True, track_running_stats=True)
        (23): Dropout2d(p=0.15, inplace=False)
        (24): ReLU()
      )
      (2): Sequential(
        (0): ZeroPad2d((1, 1, 1, 1))
        (1): Conv2d(128, 256, kernel_size=(3, 3), stride=(2, 2), bias=False)
        (2): BatchNorm2d(256, eps=0.001, momentum=0.01, affine=True, track_running_stats=True)
        (3): Dropout2d(p=0.15, inplace=False)
        (4): ReLU()
        (5): Conv2d(256, 256, kernel_size=(3, 3), stride=(1, 1), padding=(1, 1), bias=False)
        (6): BatchNorm2d(256, eps=0.001, momentum=0.01, affine=True, track_running_stats=True)
        (7): Dropout2d(p=0.15, inplace=False)
        (8): ReLU()
        (9): Conv2d(256, 256, kernel_size=(3, 3), stride=(1, 1), padding=(1, 1), bias=False)
        (10): BatchNorm2d(256, eps=0.001, momentum=0.01, affine=True, track_running_stats=True)
        (11): Dropout2d(p=0.15, inplace=False)
        (12): ReLU()
        (13): Conv2d(256, 256, kernel_size=(3, 3), stride=(1, 1), padding=(1, 1), bias=False)
        (14): BatchNorm2d(256, eps=0.001, momentum=0.01, affine=True, track_running_stats=True)
        (15): Dropout2d(p=0.15, inplace=False)
        (16): ReLU()
        (17): Conv2d(256, 256, kernel_size=(3, 3), stride=(1, 1), padding=(1, 1), bias=False)
        (18): BatchNorm2d(256, eps=0.001, momentum=0.01, affine=True, track_running_stats=True)
        (19): Dropout2d(p=0.15, inplace=False)
        (20): ReLU()
        (21): Conv2d(256, 256, kernel_size=(3, 3), stride=(1, 1), padding=(1, 1), bias=False)
        (22): BatchNorm2d(256, eps=0.001, momentum=0.01, affine=True, track_running_stats=True)
        (23): Dropout2d(p=0.15, inplace=False)
        (24): ReLU()
      )
    )
    (deblocks): ModuleList(
      (0): Sequential(
        (0): ConvTranspose2d(64, 128, kernel_size=(1, 1), stride=(1, 1), bias=False)
        (1): BatchNorm2d(128, eps=0.001, momentum=0.01, affine=True, track_running_stats=True)
        (2): Dropout2d(p=0.15, inplace=False)
        (3): ReLU()
      )
      (1): Sequential(
        (0): ConvTranspose2d(128, 128, kernel_size=(2, 2), stride=(2, 2), bias=False)
        (1): BatchNorm2d(128, eps=0.001, momentum=0.01, affine=True, track_running_stats=True)
        (2): Dropout2d(p=0.15, inplace=False)
        (3): ReLU()
      )
      (2): Sequential(
        (0): ConvTranspose2d(256, 128, kernel_size=(4, 4), stride=(4, 4), bias=False)
        (1): BatchNorm2d(128, eps=0.001, momentum=0.01, affine=True, track_running_stats=True)
        (2): Dropout2d(p=0.15, inplace=False)
        (3): ReLU()
      )
    )
  )
  (dense_head): AnchorHeadSingle(
    (cls_loss_func): SigmoidFocalClassificationLoss()
    (reg_loss_func): WeightedSmoothL1Loss()
    (dir_loss_func): WeightedCrossEntropyLoss()
    (conv_cls): Conv2d(384, 18, kernel_size=(1, 1), stride=(1, 1))
    (conv_box): Conv2d(384, 42, kernel_size=(1, 1), stride=(1, 1))
    (conv_dir_cls): Conv2d(384, 12, kernel_size=(1, 1), stride=(1, 1))
  )
  (point_head): None
  (roi_head): None
)
2023-05-26 23:43:58,101   INFO  **********************Start training cfgs/kitti_models/pointpillar_bayes(default)**********************
2023-05-26 23:43:58,108   INFO  Loading KITTI dataset
2023-05-26 23:43:58,906   INFO  Total samples for KITTI dataset: 3769
2023-05-26 23:43:59,194   INFO  ==> Loading parameters from checkpoint ./checkpoint_epoch_80.pth to GPU
…
