…
2023-07-06 16:40:01,150   INFO  Database filter by difficulty Pedestrian: 2168 => 2075
2023-07-06 16:40:01,151   INFO  Database filter by difficulty Cyclist: 705 => 581
2023-07-06 16:40:01,156   INFO  Loading KITTI dataset
2023-07-06 16:40:01,248   INFO  Total samples for KITTI dataset: 3712
2023-07-06 16:40:02,775   INFO  ==> Loading parameters from checkpoint ./checkpoint_epoch_5_multinomial.pth to CPU
2023-07-06 16:40:02,803   INFO  ==> Checkpoint trained from version: pcdet+0.6.0+02ac3e1
2023-07-06 16:40:02,888   INFO  ==> Done (loaded 127/127)
2023-07-06 16:40:02,891   INFO  PointPillar(
  (vfe): PillarVFE(
    (pfn_layers): ModuleList(
      (0): PFNLayer(
        (linear): Linear(in_features=10, out_features=64, bias=False)
        (norm): BatchNorm1d(64, eps=0.001, momentum=0.01, affine=True, track_running_stats=True)
        (do): Dropout()
      )
    )
  )
  (backbone_3d): None
  (map_to_bev_module): PointPillarScatter()
  (pfe): None
  (backbone_2d): BaseBEVBackbone(
    (blocks): ModuleList(
      (0): Sequential(
        (0): ZeroPad2d((1, 1, 1, 1))
        (1): Conv2d(64, 64, kernel_size=(3, 3), stride=(2, 2), bias=False)
        (2): BatchNorm2d(64, eps=0.001, momentum=0.01, affine=True, track_running_stats=True)
        (3): Dropout()
        (4): ReLU()
        (5): Conv2d(64, 64, kernel_size=(3, 3), stride=(1, 1), padding=(1, 1), bias=False)
        (6): BatchNorm2d(64, eps=0.001, momentum=0.01, affine=True, track_running_stats=True)
        (7): Dropout()
        (8): ReLU()
        (9): Conv2d(64, 64, kernel_size=(3, 3), stride=(1, 1), padding=(1, 1), bias=False)
        (10): BatchNorm2d(64, eps=0.001, momentum=0.01, affine=True, track_running_stats=True)
        (11): Dropout()
        (12): ReLU()
        (13): Conv2d(64, 64, kernel_size=(3, 3), stride=(1, 1), padding=(1, 1), bias=False)
        (14): BatchNorm2d(64, eps=0.001, momentum=0.01, affine=True, track_running_stats=True)
        (15): Dropout()
        (16): ReLU()
      )
      (1): Sequential(
        (0): ZeroPad2d((1, 1, 1, 1))
        (1): Conv2d(64, 128, kernel_size=(3, 3), stride=(2, 2), bias=False)
        (2): BatchNorm2d(128, eps=0.001, momentum=0.01, affine=True, track_running_stats=True)
        (3): Dropout()
        (4): ReLU()
        (5): Conv2d(128, 128, kernel_size=(3, 3), stride=(1, 1), padding=(1, 1), bias=False)
        (6): BatchNorm2d(128, eps=0.001, momentum=0.01, affine=True, track_running_stats=True)
        (7): Dropout()
        (8): ReLU()
        (9): Conv2d(128, 128, kernel_size=(3, 3), stride=(1, 1), padding=(1, 1), bias=False)
        (10): BatchNorm2d(128, eps=0.001, momentum=0.01, affine=True, track_running_stats=True)
        (11): Dropout()
        (12): ReLU()
        (13): Conv2d(128, 128, kernel_size=(3, 3), stride=(1, 1), padding=(1, 1), bias=False)
        (14): BatchNorm2d(128, eps=0.001, momentum=0.01, affine=True, track_running_stats=True)
        (15): Dropout()
        (16): ReLU()
        (17): Conv2d(128, 128, kernel_size=(3, 3), stride=(1, 1), padding=(1, 1), bias=False)
        (18): BatchNorm2d(128, eps=0.001, momentum=0.01, affine=True, track_running_stats=True)
        (19): Dropout()
        (20): ReLU()
        (21): Conv2d(128, 128, kernel_size=(3, 3), stride=(1, 1), padding=(1, 1), bias=False)
        (22): BatchNorm2d(128, eps=0.001, momentum=0.01, affine=True, track_running_stats=True)
        (23): Dropout()
        (24): ReLU()
      )
      (2): Sequential(
        (0): ZeroPad2d((1, 1, 1, 1))
        (1): Conv2d(128, 256, kernel_size=(3, 3), stride=(2, 2), bias=False)
        (2): BatchNorm2d(256, eps=0.001, momentum=0.01, affine=True, track_running_stats=True)
        (3): Dropout()
        (4): ReLU()
        (5): Conv2d(256, 256, kernel_size=(3, 3), stride=(1, 1), padding=(1, 1), bias=False)
        (6): BatchNorm2d(256, eps=0.001, momentum=0.01, affine=True, track_running_stats=True)
        (7): Dropout()
        (8): ReLU()
        (9): Conv2d(256, 256, kernel_size=(3, 3), stride=(1, 1), padding=(1, 1), bias=False)
        (10): BatchNorm2d(256, eps=0.001, momentum=0.01, affine=True, track_running_stats=True)
        (11): Dropout()
        (12): ReLU()
        (13): Conv2d(256, 256, kernel_size=(3, 3), stride=(1, 1), padding=(1, 1), bias=False)
        (14): BatchNorm2d(256, eps=0.001, momentum=0.01, affine=True, track_running_stats=True)
        (15): Dropout()
        (16): ReLU()
        (17): Conv2d(256, 256, kernel_size=(3, 3), stride=(1, 1), padding=(1, 1), bias=False)
        (18): BatchNorm2d(256, eps=0.001, momentum=0.01, affine=True, track_running_stats=True)
        (19): Dropout()
        (20): ReLU()
        (21): Conv2d(256, 256, kernel_size=(3, 3), stride=(1, 1), padding=(1, 1), bias=False)
        (22): BatchNorm2d(256, eps=0.001, momentum=0.01, affine=True, track_running_stats=True)
        (23): Dropout()
        (24): ReLU()
      )
    )
    (deblocks): ModuleList(
      (0): Sequential(
        (0): ConvTranspose2d(64, 128, kernel_size=(1, 1), stride=(1, 1), bias=False)
        (1): BatchNorm2d(128, eps=0.001, momentum=0.01, affine=True, track_running_stats=True)
        (2): Dropout()
        (3): ReLU()
      )
      (1): Sequential(
        (0): ConvTranspose2d(128, 128, kernel_size=(2, 2), stride=(2, 2), bias=False)
        (1): BatchNorm2d(128, eps=0.001, momentum=0.01, affine=True, track_running_stats=True)
        (2): Dropout()
        (3): ReLU()
      )
      (2): Sequential(
        (0): ConvTranspose2d(256, 128, kernel_size=(4, 4), stride=(4, 4), bias=False)
        (1): BatchNorm2d(128, eps=0.001, momentum=0.01, affine=True, track_running_stats=True)
        (2): Dropout()
        (3): ReLU()
      )
    )
  )
  (dense_head): AnchorHeadSingle(
    (cls_loss_func): SigmoidFocalClassificationLoss()
    (reg_loss_func): WeightedSmoothL1Loss()
    (dir_loss_func): WeightedCrossEntropyLoss()
    (conv_cls): Conv2d(384, 18, kernel_size=(1, 1), stride=(1, 1))
    (conv_box): Conv2d(384, 42, kernel_size=(1, 1), stride=(1, 1))
    (conv_dir_cls): Conv2d(384, 12, kernel_size=(1, 1), stride=(1, 1))
  )
  (point_head): None
  (roi_head): None
)
2023-07-06 16:40:02,892   INFO  **********************Start training cfgs/kitti_models/pointpillar_bayes(default)**********************
2023-07-06 16:42:23,506   INFO  cfg_file         ./cfgs/kitti_models/pointpillar_bayes.yaml
2023-07-06 16:42:23,507   INFO  batch_size       8
2023-07-06 16:42:23,508   INFO  epochs           2
…
